…
________________________________________________\n"," Layer (type)                   Output Shape         Param #     Connected to                     \n","==================================================================================================\n"," input_1 (InputLayer)           [(None, 180, 180, 3  0           []                               \n","                                )]                                                                \n","                                                                                                  \n"," sequential (Sequential)        (None, 180, 180, 3)  0           ['input_1[0][0]']                \n","                                                                                                  \n"," rescaling (Rescaling)          (None, 180, 180, 3)  0           ['sequential[0][0]']             \n","                                                                                                  \n"," conv2d (Conv2D)                (None, 90, 90, 32)   896         ['rescaling[0][0]']              \n","                                                                                                  \n"," batch_normalization (BatchNorm  (None, 90, 90, 32)  128         ['conv2d[0][0]']                 \n"," alization)                                                                                       \n","                                                                                                  \n"," activation (Activation)        (None, 90, 90, 32)   0           ['batch_normalization[0][0]']    \n","                                                                                                  \n"," conv2d_1 (Conv2D)              (None, 90, 90, 64)   18496       ['activation[0][0]']             \n","                                                                                                  \n"," batch_normalization_1 (BatchNo  (None, 90, 90, 64)  256         ['conv2d_1[0][0]']               \n"," rmalization)                                                                                     \n","                                                                                                  \n"," activation_1 (Activation)      (None, 90, 90, 64)   0           ['batch_normalization_1[0][0]']  \n","                                                                                                  \n"," activation_2 (Activation)      (None, 90, 90, 64)   0           ['activation_1[0][0]']           \n","                                                                                                  \n"," separable_conv2d (SeparableCon  (None, 90, 90, 128)  8896       ['activation_2[0][0]']           \n"," v2D)                                                                                             \n","                                                                                                  \n"," batch_normalization_2 (BatchNo  (None, 90, 90, 128)  512        ['separable_conv2d[0][0]']       \n"," rmalization)                                                                                     \n","                                                                                                  \n"," activation_3 (Activation)      (None, 90, 90, 128)  0           ['batch_normalization_2[0][0]']  \n","                                                                                                  \n"," separable_conv2d_1 (SeparableC  (None, 90, 90, 128)  17664      ['activation_3[0][0]']           \n"," onv2D)                                                                                           \n","                                                                                                  \n"," batch_normalization_3 (BatchNo  (None, 90, 90, 128)  512        ['separable_conv2d_1[0][0]']     \n"," rmalization)                                                                                     \n","                                                                                                  \n"," max_pooling2d (MaxPooling2D)   (None, 45, 45, 128)  0           ['batch_normalization_3[0][0]']  \n","                                                                                                  \n"," conv2d_2 (Conv2D)              (None, 45, 45, 128)  8320        ['activation_1[0][0]']           \n","                                                                                                  \n"," add (Add)                      (None, 45, 45, 128)  0           ['max_pooling2d[0][0]',          \n","                                                                  'conv2d_2[0][0]']               \n","                                                                                                  \n"," activation_4 (Activation)      (None, 45, 45, 128)  0           ['add[0][0]']                    \n","                                                                                                  \n"," separable_conv2d_2 (SeparableC  (None, 45, 45, 256)  34176      ['activation_4[0][0]']           \n"," onv2D)                                                                                           \n","                                                                                                  \n"," batch_normalization_4 (BatchNo  (None, 45, 45, 256)  1024       ['separable_conv2d_2[0][0]']     \n"," rmalization)                                                                                     \n","                                                                                                  \n"," activation_5 (Activation)      (None, 45, 45, 256)  0           ['batch_normalization_4[0][0]']  \n","                                                                                                  \n"," separable_conv2d_3 (SeparableC  (None, 45, 45, 256)  68096      ['activation_5[0][0]']           \n"," onv2D)                                                                                           \n","                                                                                                  \n"," batch_normalization_5 (BatchNo  (None, 45, 45, 256)  1024       ['separable_conv2d_3[0][0]']     \n"," rmalization)                                                                                     \n","                                                                                                  \n"," max_pooling2d_1 (MaxPooling2D)  (None, 23, 23, 256)  0          ['batch_normalization_5[0][0]']  \n","                                                                                                  \n"," conv2d_3 (Conv2D)              (None, 23, 23, 256)  33024       ['add[0][0]']                    \n","                                                                                                  \n"," add_1 (Add)                    (None, 23, 23, 256)  0           ['max_pooling2d_1[0][0]',        \n","                                                                  'conv2d_3[0][0]']               \n","                                                                                                  \n"," activation_6 (Activation)      (None, 23, 23, 256)  0           ['add_1[0][0]']                  \n","                                                                                                  \n"," separable_conv2d_4 (SeparableC  (None, 23, 23, 512)  133888     ['activation_6[0][0]']           \n"," onv2D)                                                                                           \n","                                                                                                  \n"," batch_normalization_6 (BatchNo  (None, 23, 23, 512)  2048       ['separable_conv2d_4[0][0]']     \n"," rmalization)                                                                                     \n","                                                                                                  \n"," activation_7 (Activation)      (None, 23, 23, 512)  0           ['batch_normalization_6[0][0]']  \n","                                                                                                  \n"," separable_conv2d_5 (SeparableC  (None, 23, 23, 512)  267264     ['activation_7[0][0]']           \n"," onv2D)                                                                                           \n","                                                                                                  \n"," batch_normalization_7 (BatchNo  (None, 23, 23, 512)  2048       ['separable_conv2d_5[0][0]']     \n"," rmalization)                                                                                     \n","                                                                                                  \n"," max_pooling2d_2 (MaxPooling2D)  (None, 12, 12, 512)  0          ['batch_normalization_7[0][0]']  \n","                                                                                                  \n"," conv2d_4 (Conv2D)              (None, 12, 12, 512)  131584      ['add_1[0][0]']                  \n","                                                                                                  \n"," add_2 (Add)                    (None, 12, 12, 512)  0           ['max_pooling2d_2[0][0]',        \n","                                                                  'conv2d_4[0][0]']               \n","                                                                                                  \n"," activation_8 (Activation)      (None, 12, 12, 512)  0           ['add_2[0][0]']                  \n","                                                                                                  \n"," separable_conv2d_6 (SeparableC  (None, 12, 12, 728)  378072     ['activation_8[0][0]']           \n"," onv2D)                                                                                           \n","                                                                                                  \n"," batch_normalization_8 (BatchNo  (None, 12, 12, 728)  2912       ['separable_conv2d_6[0][0]']     \n"," rmalization)                                                                                     \n","                                                                                                  \n"," activation_9 (Activation)      (None, 12, 12, 728)  0           ['batch_normalization_8[0][0]']  \n","                                                                                                  \n"," separable_conv2d_7 (SeparableC  (None, 12, 12, 728)  537264     ['activation_9[0][0]']           \n"," onv2D)                                                                                           \n","                                                                                                  \n"," batch_normalization_9 (BatchNo  (None, 12, 12, 728)  2912       ['separable_conv2d_7[0][0]']     \n"," rmalization)                                                                                     \n","                                                                                                  \n"," max_pooling2d_3 (MaxPooling2D)  (None, 6, 6, 728)   0           ['batch_normalization_9[0][0]']  \n","                                                                                                  \n"," conv2d_5 (Conv2D)              (None, 6, 6, 728)    373464      ['add_2[0][0]']                  \n","                                                                                                  \n"," add_3 (Add)                    (None, 6, 6, 728)    0           ['max_pooling2d_3[0][0]',        \n","                                                                  'conv2d_5[0][0]']               \n","                                                                                                  \n"," separable_conv2d_8 (SeparableC  (None, 6, 6, 1024)  753048      ['add_3[0][0]']                  \n"," onv2D)                                                                                           \n","                                                                                                  \n"," batch_normalization_10 (BatchN  (None, 6, 6, 1024)  4096        ['separable_conv2d_8[0][0]']     \n"," ormalization)                                                                                    \n","                                                                                                  \n"," activation_10 (Activation)     (None, 6, 6, 1024)   0           ['batch_normalization_10[0][0]'] \n","                                                                                                  \n"," global_average_pooling2d (Glob  (None, 1024)        0           ['activation_10[0][0]']          \n"," alAveragePooling2D)                                                                              \n","                                                                                                  \n"," dropout (Dropout)              (None, 1024)         0           ['global_average_pooling2d[0][0]'\n","                                                                 ]                                \n","                                                                                                  \n"," dense (Dense)                  (None, 1)            1025        ['dropout[0][0]']                \n","                                                                                                  \n","==================================================================================================\n","Total params: 2,782,649\n","Trainable params: 2,773,913\n","Non-trainable params: 8,736\n","________________________________________________________
…
